[INFO] loading datasets...
[INFO] loading model...
[INFO] model structure...
Model: "sequential"
____________________________________________________________________
 Layer (type)                Output Shape                 Param #   
====================================================================
 conv2d (Conv2D)               (None, 28, 28, 32)         320       
                                                                 
 max_pooling2d (MaxPooling2D)  (None, 15, 15, 32)         0         
                                                                 
 flatten (Flatten)             (None, 7200)               0         
                                                                 
 dense (Dense)                 (None, 100)                720100    
                                                                
 dense_1 (Dense)               (None, 36)                 3636      
                                                                 
====================================================================
Total params: 724,056
Trainable params: 724,056
Non-trainable params: 0
____________________________________________________________________

[INFO] evaluating network...
              precision    recall  f1-score   support

           0       0.59      0.86      0.70      1381
…
